Model: "sequential"
_________________________________________________________________
 Layer (type)                Output Shape              Param #   
=================================================================
 dense (Dense)               (None, 5)                 10        
                                                                 
 dense_1 (Dense)             (None, 50)                300       
                                                                 
 dense_2 (Dense)             (None, 50)                2550      
                                                                 
 dense_3 (Dense)             (None, 50)                2550      
                                                                 
 dense_4 (Dense)             (None, 50)                2550      
                                                                 
 dense_5 (Dense)             (None, 1)                 51        
                                                                 
=================================================================
Total params: 8,011
Trainable params: 8,011
Non-trainable params: 0
_________________________________________________________________


Epoch: 0 | Loss: 0.6846106052398682 | Valid loss: 0.6708847880363464 | Val Accuracy : 1.0 | Accuracy : 0.8421052694320679
Epoch: 1 | Loss: 0.6616196632385254 | Valid loss: 0.6434336304664612 | Val Accuracy : 1.0 | Accuracy : 0.9671052694320679
…
