Model: "sequential"
_________________________________________________________________
 Layer (type)                Output Shape              Param #   
=================================================================
 dense (Dense)               (None, 5)                 10        
                                                                 
 dense_1 (Dense)             (None, 50)                300       
                                                                 
 dense_2 (Dense)             (None, 50)                2550      
                                                                 
 dense_3 (Dense)             (None, 50)                2550      
                                                                 
 dense_4 (Dense)             (None, 1)                 51        
                                                                 
=================================================================
Total params: 5,461
Trainable params: 5,461
Non-trainable params: 0
_________________________________________________________________


Epoch: 0 | Loss: 0.6825213432312012 | Valid loss: 0.6618530750274658 | Val Accuracy : 1.0 | Accuracy : 0.9013158082962036
Epoch: 1 | Loss: 0.653627872467041 | Valid loss: 0.6254091262817383 | Val Accuracy : 1.0 | Accuracy : 1.0
…
