Model: "sequential"
_________________________________________________________________
 Layer (type)                Output Shape              Param #   
=================================================================
 dense (Dense)               (None, 5)                 10        
                                                                 
 dense_1 (Dense)             (None, 50)                300       
                                                                 
 dense_2 (Dense)             (None, 50)                2550      
                                                                 
 dense_3 (Dense)             (None, 50)                2550      
                                                                 
 dense_4 (Dense)             (None, 50)                2550      
                                                                 
 dense_5 (Dense)             (None, 1)                 51        
                                                                 
=================================================================
Total params: 8,011
Trainable params: 8,011
Non-trainable params: 0
_________________________________________________________________


Epoch: 0 | Loss: 0.6013619303703308 | Valid loss: 0.17435310781002045 | Val Accuracy : 1.0 | Accuracy : 0.875
Epoch: 1 | Loss: 0.2975451648235321 | Valid loss: 0.39560747146606445 | Val Accuracy : 0.7954545617103577 | Accuracy : 0.9204545617103577
…
