Model: "sequential"
_________________________________________________________________
 Layer (type)                Output Shape              Param #   
=================================================================
 dense (Dense)               (None, 5)                 10        
                                                                 
 dense_1 (Dense)             (None, 50)                300       
                                                                 
 dense_2 (Dense)             (None, 50)                2550      
                                                                 
 dense_3 (Dense)             (None, 50)                2550      
                                                                 
 dense_4 (Dense)             (None, 1)                 51        
                                                                 
=================================================================
Total params: 5,461
Trainable params: 5,461
Non-trainable params: 0
_________________________________________________________________


Epoch: 0 | Loss: 0.5957231521606445 | Valid loss: 0.2351786494255066 | Val Accuracy : 0.9545454382896423 | Accuracy : 0.8522727489471436
…
