Model: "sequential"
_________________________________________________________________
 Layer (type)                Output Shape              Param #   
=================================================================
 dense (Dense)               (None, 5)                 10        
                                                                 
 dense_1 (Dense)             (None, 50)                300       
                                                                 
 dense_2 (Dense)             (None, 50)                2550      
                                                                 
 dense_3 (Dense)             (None, 50)                2550      
                                                                 
 dense_4 (Dense)             (None, 50)                2550      
                                                                 
 dense_5 (Dense)             (None, 1)                 51        
                                                                 
=================================================================
Total params: 8,011
Trainable params: 8,011
Non-trainable params: 0
_________________________________________________________________


Epoch: 0 | Loss: 0.8472620248794556 | Valid loss: 1.0213619470596313 | Val Accuracy : 0.0 | Accuracy : 0.6079545617103577
Epoch: 1 | Loss: 0.36222052574157715 | Valid loss: 0.18796691298484802 | Val Accuracy : 0.9772727489471436 | Accuracy : 0.7613636255264282
…
