Model: "sequential"
_________________________________________________________________
 Layer (type)                Output Shape              Param #   
=================================================================
 dense (Dense)               (None, 5)                 15        
                                                                 
 dense_1 (Dense)             (None, 50)                300       
                                                                 
 dense_2 (Dense)             (None, 50)                2550      
                                                                 
 dense_3 (Dense)             (None, 50)                2550      
                                                                 
 dense_4 (Dense)             (None, 1)                 51        
                                                                 
=================================================================
Total params: 5,466
Trainable params: 5,466
Non-trainable params: 0
_________________________________________________________________


Epoch: 0 | Loss: 0.610527515411377 | Valid loss: 0.2605060935020447 | Val Accuracy : 0.9772727489471436 | Accuracy : 0.6875
…
