Model: "sequential"
_________________________________________________________________
 Layer (type)                Output Shape              Param #   
=================================================================
 dense (Dense)               (None, 5)                 15        
                                                                 
 dense_1 (Dense)             (None, 50)                300       
                                                                 
 dense_2 (Dense)             (None, 50)                2550      
                                                                 
 dense_3 (Dense)             (None, 50)                2550      
                                                                 
 dense_4 (Dense)             (None, 50)                2550      
                                                                 
 dense_5 (Dense)             (None, 1)                 51        
                                                                 
=================================================================
Total params: 8,016
Trainable params: 8,016
Non-trainable params: 0
_________________________________________________________________


Epoch: 0 | Loss: 686.122802734375 | Valid loss: 58.00117492675781 | Val Accuracy : 0.0 | Accuracy : 0.47727271914482117
Epoch: 1 | Loss: 6.8882246017456055 | Valid loss: 11.026786804199219 | Val Accuracy : 0.0 | Accuracy : 0.5568181872367859
…
