Model: "sequential"
_________________________________________________________________
 Layer (type)                Output Shape              Param #   
=================================================================
 dense (Dense)               (None, 5)                 15        
                                                                 
 dense_1 (Dense)             (None, 50)                300       
                                                                 
 dense_2 (Dense)             (None, 50)                2550      
                                                                 
 dense_3 (Dense)             (None, 50)                2550      
                                                                 
 dense_4 (Dense)             (None, 50)                2550      
                                                                 
 dense_5 (Dense)             (None, 1)                 51        
                                                                 
=================================================================
Total params: 8,016
Trainable params: 8,016
Non-trainable params: 0
_________________________________________________________________


Epoch: 0 | Loss: 0.8634440898895264 | Valid loss: 0.5902958512306213 | Val Accuracy : 1.0 | Accuracy : 0.5625
Epoch: 1 | Loss: 0.433695524930954 | Valid loss: 0.03919984772801399 | Val Accuracy : 1.0 | Accuracy : 0.7215909361839294
…
