Model: "sequential"
_________________________________________________________________
 Layer (type)                Output Shape              Param #   
=================================================================
 dense (Dense)               (None, 5)                 15        
                                                                 
 dense_1 (Dense)             (None, 50)                300       
                                                                 
 dense_2 (Dense)             (None, 50)                2550      
                                                                 
 dense_3 (Dense)             (None, 50)                2550      
                                                                 
 dense_4 (Dense)             (None, 50)                2550      
                                                                 
 dense_5 (Dense)             (None, 1)                 51        
                                                                 
=================================================================
Total params: 8,016
Trainable params: 8,016
Non-trainable params: 0
_________________________________________________________________


Epoch: 0 | Loss: 1240159.125 | Valid loss: 0.0 | Val Accuracy : 1.0 | Accuracy : 0.4204545319080353
Epoch: 1 | Loss: 25.780292510986328 | Valid loss: 11.606088638305664 | Val Accuracy : 0.0 | Accuracy : 0.46590909361839294
…
