Model: "sequential"
_________________________________________________________________
 Layer (type)                Output Shape              Param #   
=================================================================
 dense (Dense)               (None, 5)                 10        
                                                                 
 dense_1 (Dense)             (None, 50)                300       
                                                                 
 dense_2 (Dense)             (None, 50)                2550      
                                                                 
 dense_3 (Dense)             (None, 50)                2550      
                                                                 
 dense_4 (Dense)             (None, 1)                 51        
                                                                 
=================================================================
Total params: 5,461
Trainable params: 5,461
Non-trainable params: 0
_________________________________________________________________
Epoch: 0 | Loss: 9373.927734375 | Valid loss: 8795.7255859375 | Val Accuracy : 0.0 | Accuracy : 0.0
Epoch: 1 | Loss: 8243.3447265625 | Valid loss: 7807.43212890625 | Val Accuracy : 0.0 | Accuracy : 0.0
…
