Model: "sequential"
_________________________________________________________________
 Layer (type)                Output Shape              Param #   
=================================================================
 dense (Dense)               (None, 5)                 10        
                                                                 
 dense_1 (Dense)             (None, 50)                300       
                                                                 
 dense_2 (Dense)             (None, 50)                2550      
                                                                 
 dense_3 (Dense)             (None, 50)                2550      
                                                                 
 dense_4 (Dense)             (None, 50)                2550      
                                                                 
 dense_5 (Dense)             (None, 1)                 51        
                                                                 
=================================================================
Total params: 8,011
Trainable params: 8,011
Non-trainable params: 0
_________________________________________________________________
Epoch: 0 | Loss: 9340.580078125 | Valid loss: 8723.16015625 | Val Accuracy : 0.0 | Accuracy : 0.0
Epoch: 1 | Loss: 8250.3408203125 | Valid loss: 7909.03125 | Val Accuracy : 0.0 | Accuracy : 0.0
…
