Model: "sequential"
_________________________________________________________________
 Layer (type)                Output Shape              Param #   
=================================================================
 dense (Dense)               (None, 5)                 10        
                                                                 
 dense_1 (Dense)             (None, 50)                300       
                                                                 
 dense_2 (Dense)             (None, 50)                2550      
                                                                 
 dense_3 (Dense)             (None, 50)                2550      
                                                                 
 dense_4 (Dense)             (None, 50)                2550      
                                                                 
 dense_5 (Dense)             (None, 1)                 51        
                                                                 
=================================================================
Total params: 8,011
Trainable params: 8,011
Non-trainable params: 0
_________________________________________________________________
Epoch: 0 | Loss: 8030.9892578125 | Valid loss: 6257.517578125 | Val Accuracy : 0.0 | Accuracy : 0.0
Epoch: 1 | Loss: 4890.10791015625 | Valid loss: 3607.17724609375 | Val Accuracy : 0.0 | Accuracy : 0.0
…
