Model: "sequential"
_________________________________________________________________
 Layer (type)                Output Shape              Param #   
=================================================================
 dense (Dense)               (None, 5)                 10        
                                                                 
 dense_1 (Dense)             (None, 50)                300       
                                                                 
 dense_2 (Dense)             (None, 50)                2550      
                                                                 
 dense_3 (Dense)             (None, 50)                2550      
                                                                 
 dense_4 (Dense)             (None, 50)                2550      
                                                                 
 dense_5 (Dense)             (None, 1)                 51        
                                                                 
=================================================================
Total params: 8,011
Trainable params: 8,011
Non-trainable params: 0
_________________________________________________________________
Epoch: 0 | Loss: 1781.4222412109375 | Valid loss: 87.94935607910156 | Val Accuracy : 0.0 | Accuracy : 0.0
Epoch: 1 | Loss: 217.93582153320312 | Valid loss: 143.4731903076172 | Val Accuracy : 0.0 | Accuracy : 0.0
…
