Model: "sequential"
_________________________________________________________________
 Layer (type)                Output Shape              Param #   
=================================================================
 dense (Dense)               (None, 5)                 10        
                                                                 
 dense_1 (Dense)             (None, 50)                300       
                                                                 
 dense_2 (Dense)             (None, 50)                2550      
                                                                 
 dense_3 (Dense)             (None, 50)                2550      
                                                                 
 dense_4 (Dense)             (None, 50)                2550      
                                                                 
 dense_5 (Dense)             (None, 1)                 51        
                                                                 
=================================================================
Total params: 8,011
Trainable params: 8,011
Non-trainable params: 0
_________________________________________________________________
Epoch: 0 | Loss: 2132.915771484375 | Valid loss: 920.2044067382812 | Val Accuracy : 0.0 | Accuracy : 0.0
Epoch: 1 | Loss: 269.3537292480469 | Valid loss: 198.53793334960938 | Val Accuracy : 0.0 | Accuracy : 0.0
…
